Public/shadow.onnx (onnx, 53437 bytes, 109 tensors)

blocks.1.weight f4 [16, 3, 3, 3]
0.06940545 -0.00424066 -0.050892264 0.074404225 0.08437191 -0.046791013 -0.075278394 0.050833993
-0.04750108 0.059253722 0.081621334 0.062499065 0.061995637 0.0686996 0.101514556 -0.04505499
0.05588417 0.07036873 0.059644494 0.07106577 0.05874903 0.056372125 0.064650014 0.06605294
0.022432288 0.04823608 0.053710893 -0.2296502 -0.14295806 -0.00642314 -0.11194252 -0.05620116
0.03231236 0.01860399 0.21634951 0.26792607 -0.15013869 -0.19368912 0.037639465 -0.069253616
-0.03342143 0.06579157 0.020049222 0.18802701 0.24981423 -0.23102088 -0.16518307 -0.021489948
-0.10530975 -0.0519542 0.04346625 0.0023735166 0.20606698 0.2572623 0.060047433 0.062124494
0.057016946 0.0611549 0.059266128 0.04511814 0.06491635 0.05451227 0.04835473 0.05996415
0.06313375 0.059378803 0.06240987 0.05989725 0.047161352 0.06482577 0.056936093 0.05430043
0.060907573 0.06291085 0.0628365 0.06339354 0.06322121 0.055908065 0.06331223 0.0622745
0.05559244 -0.095299445 -0.09971892 -0.07262852 -0.082220815 0.022023827 0.046518322 -0.022795515
0.035956398 0.03776758 -0.08123818 -0.08246504 -0.073408596 -0.08842739 -0.024787176 -0.012284595
-0.046982147 -0.0044413423 0.005814169 -0.085134886 -0.07903408 -0.06674991 -0.08272839 -0.019954102
-0.029676687 -0.039468464 0.000750504 -0.0008428392 0.058626328 0.06325331 0.0608965 0.061924268
0.061287187 0.060108114 0.058044046 0.060736913 0.059881933 0.059783053 0.06260366 0.061697815
0.06024597 0.062847674 0.06001925 0.058305487 0.060518656 0.05849689 0.05640588 0.05964118
0.059277773 0.05905663 0.061810683 0.058698468 0.05370944 0.057356894 0.05814249 -0.061344307
-0.06007392 -0.061167978 -0.061575506 -0.05943618 -0.06069624 -0.059593562 -0.059605412 -0.06054444
-0.059651993 -0.059475154 -0.058346782 -0.06081645 -0.058563326 -0.060032267 -0.058823545 -0.059329133
-0.05998588 -0.059027024 -0.060306273 -0.060676303 -0.05876499 -0.06064254 -0.060723968 -0.05969949
-0.05963287 -0.06062229 -0.079526484 -0.081557415 -0.06776655 -0.074234575 -0.075722106 -0.04961391
-0.027296597 -0.045125153 -0.069498084 -0.07051826 -0.07506615 -0.06199639 -0.068770654 -0.066260815
-0.03652355 -0.018947214 -0.0349623 -0.05963934 -0.046415705 -0.047228437 -0.032669947 -0.032641824
-0.027529916 -0.02112968 0.0095712785 -0.014473137 -0.03140996 0.047137585 0.045922115 0.03856711
0.049742963 0.06587044 0.06863358 0.06956994 0.078751326 0.05795685 0.060626443 0.056982294
0.05251282 0.06945816 0.076331645 0.08107872 0.10153566 0.09318354 0.080761194 -0.03624277
-0.010861462 -0.05503234 -0.034568362 0.010909912 -0.035588343 -0.025472939 -0.012115234 -0.039783362
0.05995219 0.061109446 0.060995597 0.05937926 0.061403614 0.05913477 0.060828403 0.059077706
0.059992984 0.060242444 0.062070295 0.059271574 0.059107568 0.060508694 0.06104079 0.060547635
0.058742978 0.05884103 0.061061867 0.060989812 0.058741342 0.060383223 0.06088406 0.05970069
0.05828214 0.060994513 0.059876036 0.0601072 0.059365787 0.05909712 0.058765557 0.061135996
0.060743332 0.0595597 0.061134953 0.058124207 0.06109846 0.05980282 0.06000589 0.0595672
00000000: 7224 8e3d 3cf5 8abb 6874 50bd 3e61 983d
00000010: 2ecb ac3d efa7 3fbd 8f2b 9abd 4e37 503d
00000020: 7e90 42bd 08b4 723d 1629 a73d 05ff 7f3d
00000030: 23ef 7d3d 60b2 8c3d dde6 cf3d 958b 38bd
00000040: cde6 643d 7b1d 903d c94d 743d ee8a 913d
00000050: d3a2 703d 75e6 663d 3a67 843d c446 873d
00000060: ebc3 b73c 3293 453d f4ff 5b3d 6c29 6bbe
00000070: 9963 12be 3479 d2bb 1f42 e5bd 3033 66bd
00000080: f759 043d 6567 983c ba8a 5d3e 9b2d 893e
00000090: f5bd 19be 7156 46be d72b 1a3d d7d4 8dbd
000000a0: e9e4 08bd bbbd 863d 443e a43c 278a 403e
000000b0: 4dcf 7f3e bd90 6cbe c025 29be b00b b0bc
000000c0: a3ac d7bd edcd 54bd ab09 323d 008d 1b3b
000000d0: 3903 533e e2b7 833e 4cf4 753d 4176 7e3d
000000e0: 9a8a 693d 8f7d 7a3d 0ac1 723d cccd 383d
000000f0: ddf2 843d 4248 5f3d 9c0f 463d f89c 753d
00000100: 444c 813d 3037 733d 7ea1 7f3d d256 753d
00000110: 432c 413d 60c3 843d d235 693d 216a 5e3d
00000120: 387a 793d 67d7 803d 6cb0 803d 79d4 813d
00000130: 1f7a 813d dbff 643d d8a9 813d 8c13 7f3d
00000140: e6b4 633d 5b2c c3bd 6f39 ccbd 43be 94bd
00000150: 6363 a8bd 506b b43c ff89 3e3d a9bd babc
00000160: 0447 133d 2eb2 1a3d 3460 a6bd 6ee3 a8bd
00000170: 3f57 96bd 6b19 b5bd 7a0e cbbc 5345 49bc
00000180: 5a70 40bd ae88 91bb c984 be3b 335b aebd
00000190: 9fdc a1bd 2db4 88bd 816d a9bd c976 a3bc
000001a0: 861c f3bc afa9 21bd 79bd 443a fbf1 5cba
000001b0: 2922 703d f48a 813d 9c6e 793d 4da4 7d3d
000001c0: 4608 7b3d ed33 763d 98bf 6d3d 45c7 783d
000001d0: c246 753d 13df 743d 5936 803d d9b6 7c3d
000001e0: 7ac4 763d 48b6 803d bfd6 753d bcd1 6e3d
000001f0: 69e2 773d 6f9a 6f3d da09 673d 4f4a 743d
00000200: 40cd 723d 5de5 713d 332d 7d3d ce6d 703d
00000210: 6efe 5b3d 10ef 6a3d d226 6e3d 2b44 7bbd
00000220: 1210 76bd 468b 7abd 9936 7cbd 5a73 73bd
00000230: 9f9c 78bd 6118 74bd ce24 74bd 72fd 77bd
00000240: a655 74bd 389c 73bd 09fd 6ebd ab1a 79bd
00000250: 19e0 6fbd 65e4 75bd f5f0 70bd 1b03 73bd
00000260: c1b3 75bd 52c6 71bd b603 77bd b787 78bd
00000270: 8fb3 70bd 5064 78bd b2b9 78bd 7487 74bd
00000280: 9941 74bd 144f 78bd c8de a2bd 9307 a7bd
00000290: 30c9 8abd 4c08 98bd 3114 9bbd f537 4bbd
000002a0: 1d9d dfbc 27d5 38bd 0355 8ebd e16b 90bd
000002b0: 48bc 99bd edef 7dbd a1d7 8cbd c0b3 87bd
000002c0: b899 15bd 3037 9bbc a134 0fbd 6148 74bd
000002d0: 651e 3ebd 9b72 41bd ecd0 05bd 6fb3 05bd
000002e0: 6b86 e1bc 2718 adbc dad0 1c3c bd20 6dbc
000002f0: bba7 00bd 5713 413d d418 3c3d 8cf8 1d3d
00000300: 47bf 4b3d 15e7 863d c38f 8c3d af7a 8e3d
00000310: 6048 a13d 2964 6d3d 6f53 783d 4466 693d
00000320: af17 573d 1440 8e3d c453 9c3d 9a0c a63d
00000330: eef1 cf3d 03d7 be3d 2066 a53d 4c73 14bd
00000340: 46f4 31bc 9769 61bd 8e97 0dbd 7dbf 323c
00000350: 15c5 11bd a0ac d0bc f97e 46bc e1f3 22bd
00000360: 6d90 753d e64d 7a3d 85d6 793d ab37 733d
00000370: 5b82 7b3d 4d37 723d 3427 793d 77fb 713d
00000380: 34bb 753d c8c0 763d 6c3d 7e3d c0c6 723d
00000390: c71a 723d f7d7 773d e805 7a3d cc00 783d
000003a0: 7a9c 703d 4b03 713d 021c 7a3d 74d0 793d
000003b0: c39a 703d 6654 773d 9061 793d b688 743d
000003c0: 41b9 6e3d 62d5 793d 9340 753d f832 763d
000003d0: 8a29 733d d20f 723d 27b4 703d bd69 7a3d
000003e0: 00ce 783d dff4 733d a568 7a3d a613 6e3d
000003f0: 6142 7a3d cdf3 743d bcc8 753d bcfc 733d

blocks.2.bias f4 [16]
0.47692868 0.5221768 0.058462385 -0.07213271 0.4634552 -0.017858071 -0.08319281 0.012445461
0.13106196 0.24983695 0.48824504 -0.007690875 0.02266812 1.6425078 0.44339585 0.41759259
00000000: ff2f f43e 61ad 053f 4176 6f3d 50ba 93bd
00000010: 004a ed3e 174b 92bc fe60 aabd 0ce8 4b3c
00000020: 1b35 063e 42d5 7f3e 41fb f93e bc03 fcbb
00000030: 7eb2 b93c b23d d23f c804 e33e b2ce d53e

blocks.2.running_mean f4 [16]
116.50315 11.956624 176.53069 -114.70726 179.35004 -179.89143 -147.19934 110.95985
180.31941 180.25615 -2.2344117 -179.89293 179.28716 138.39854 10.683409 127.06029
00000000: 9d01 e942 554e 3f41 db87 3043 1e6a e5c2
00000010: 9c59 3343 35e4 33c3 0833 13c3 71eb dd42
00000020: c551 3443 9341 3443 9a00 0fc0 97e4 33c3
00000030: 8349 3343 0766 0a43 3eef 2a41 de1e fe42

blocks.2.running_var f4 [16]
6401.7974 1088.3282 13343.956 5862.125 13691.046 13792.496 8925.45 4928.6553
13864.483 13862.03 689.6916 13802.934 13673.648 7927.9575 585.9321 7212.86
00000000: 610e c845 810a 8844 d37f 5046 0031 b745
00000010: 2fec 5546 fc81 5746 cd75 0b46 3e05 9a45
00000020: efa1 5846 1f98 5846 436c 2c44 bcab 5746
00000030: 98a6 5546 a9bf f745 a87b 1244 e166 e145

blocks.2.weight f4 [16]
0.84512496 1.2217852 0.6240879 0.901696 0.73478824 0.8848734 0.91690433 0.37046733
1.1329585 1.0132793 2.0524304 0.9676244 0.6055695 1.1303475 0.97158414 0.9456268
00000000: 1c5a 583f 7563 9c3f 3ac4 1f3f 8dd5 663f
00000010: 151b 3c3f 1087 623f 3eba 6a3f e5ad bd3e
00000020: c904 913f 23b3 813f 055b 0340 3cb6 773f
00000030: 9a06 1b3f 3aaf 903f bdb9 783f 9914 723f

blocks.3.blocks.10.bias f4 [16]
0.09017164 -0.050317775 0.06643471 -0.13212024 -0.06723003 0.012445704 -0.0048457137 -0.023556903
-0.080720805 -0.16910847 0.03850127 -0.0013479604 -0.008867373 -0.025168225 -0.0107677225 -0.035264965
00000000: e9ab b83d 031a 4ebd ec0e 883d 874a 07be
00000010: e6af 89bd 11e9 4b3c cbc8 9ebb 68fa c0bc
00000020: f350 a5bd c52a 2dbe 82b3 1d3d 0cae b0ba
00000030: 7548 11bc 982d cebc 1a6b 30bc ff71 10bd

blocks.3.blocks.10.running_mean f4 [16]
1.9313657 0.32099357 4.106052 0.7639002 -1.0537996 -0.6146452 -0.33866927 1.2589085
-1.1211497 1.3294199 -0.03398267 2.8303945 1.7137802 0.34535185 2.7757876 -2.2722857
00000000: fe36 f73f 4559 a43e c764 8340 f78e 433f
00000010: e8e2 86bf 6359 1dbf 0f66 adbe ea23 a13f
00000020: d581 8fbf 6e2a aa3f 6a31 0bbd 2f25 3540
00000030: 265d db3f f5d1 b03e 81a6 3140 216d 11c0

blocks.3.blocks.10.running_var f4 [16]
5.8433733 6.2456 6.41817 5.2649374 7.7682586 15.048767 6.223562 5.8152485
9.624723 6.566517 3.9555316 8.059026 5.1687117 4.107045 10.130851 6.6212697
00000000: eafc ba40 f5db c740 a661 cd40 5e7a a840
00000010: 9395 f840 c0c7 7041 6b27 c740 8416 ba40
00000020: defe 1941 e820 d240 6e27 7d40 c5f1 0041
00000030: 1666 a540 ea6c 8340 f717 2241 71e1 d340

blocks.3.blocks.10.weight f4 [16]
1.0584296 0.89661497 0.76783735 0.970795 0.9316133 0.99176496 1.0312924 0.98503953
0.8912279 1.0716692 1.0367996 0.99264425 1.0056648 0.95073205 1.0256193 0.9061115
00000000: 9f7a 873f 8f88 653f fd90 443f 0586 783f
00000010: 367e 6e3f 4fe4 7d3f 6401 843f 8d2b 7c3f
00000020: 8327 643f 752c 893f d9b5 843f ef1d 7e3f
00000030: a0b9 803f 2d63 733f 7e47 833f ecf6 673f

blocks.3.blocks.12.bias f4 [16]
-2.6189677e-05 3.9514216e-05 1.7295431e-05 -0.000159059 1.9110481e-05 -3.976343e-05 0.00010553334 0.00021020358
9.3348724e-05 -0.0002864309 -0.00017150013 -5.9031445e-06 -8.691679e-05 -4.8825434e-05 4.3309727e-05 0.00010096912
00000000: e7b1 dbb7 11bc 2538 a815 9137 13c9 26b9
00000010: 724f a037 a8c7 26b8 c851 dd38 186a 5c39
00000020: 37c4 c338 1b2c 96b9 b7d4 33b9 a013 c6b6
00000030: 1947 b6b8 e9c9 4cb8 77a7 3538 62bf d338

blocks.3.blocks.12.weight f4 [16, 16, 2, 2]
0.0903227 0.2662435 0.10239043 0.10469375 -0.20706192 0.067087315 -0.007815327 -0.17408666
0.11756127 0.1055039 -0.15535761 0.14497557 -0.03351841 -0.13587096 0.073135465 -0.12075957
-0.16308008 -0.094532155 0.044488233 -0.033193916 -0.01156042 0.018905653 -0.08865306 -0.037155982
0.12472497 0.013042698 -0.00089833414 0.002008556 -0.18467098 -0.118706115 -0.060899053 -0.18722059
-0.014451586 -0.17738129 -0.03218122 0.0070937714 -0.07207919 -0.13854076 -0.04432356 -0.16604617
-0.081732176 -0.18052894 0.047099654 -0.09891637 0.09884645 -0.1260452 0.017037684 0.07579462
-0.036848966 0.05473041 -0.0058914414 -0.033247773 0.015459682 -0.14972627 0.010740867 -0.017470408
0.058505815 0.14219342 0.055643734 0.2170714 -0.08221379 0.13575631 0.035600707 -0.019865464
-0.055619784 -0.04738503 -0.029510288 -0.0650727 -0.15370288 -0.014580877 -0.14493819 -0.046607327
-0.097458936 -0.01659436 -0.0039450866 -0.062480696 0.115283966 0.061933883 0.07606457 0.12585627
-0.16676806 -0.06234233 0.14375153 0.14822873 0.11528841 0.13107073 0.0890206 -0.0018831133
0.055408694 -0.0059908326 -0.0014932989 -0.12661421 0.21606357 0.010255007 0.18193439 0.09531989
0.06700455 -0.053035207 0.083703086 -0.031915665 0.03964931 0.006290691 0.030625599 -0.095256895
0.009216559 -0.031698886 -0.036312602 0.05274427 0.18194032 -0.0053157606 -0.12111236 0.021781318
0.040029127 -0.10392325 0.06271708 -0.088591255 0.02494915 -0.0717784 0.026362892 -0.049253173
-0.0968444 0.008114944 -0.019183515 -0.07839778 -0.19621138 -0.118026115 -0.10424043 -0.025975045
0.017545179 0.017215233 0.06350826 -0.082171366 -0.16130568 -0.097294144 0.08471457 -0.017336363
0.04800553 0.112007536 0.042165317 -0.07649147 0.051719796 -0.10472609 0.08923939 -0.024112538
-0.11021258 -0.23509862 0.028231774 0.1389019 -0.029389117 0.0071854284 0.06686833 -0.017731875
0.02993173 0.026171457 -0.10766433 0.08522661 0.029506896 0.013543783 0.09471236 0.0926998
-0.022721093 -0.041765496 0.0018449111 -0.017032903 -0.030771926 0.026829058 -0.0705623 -0.18979856
0.07453389 -0.053299945 0.044149894 0.13220525 -0.09912537 -0.07257964 0.025666898 -0.13213466
0.0007080465 -0.08875651 -0.09886329 -0.018999761 -0.1504551 -0.3085499 0.03767765 -0.1666789
0.055842735 0.08042153 0.08279668 0.13039763 -0.10233685 0.026989827 -0.058236655 -0.121134676
-0.030453002 0.14190386 0.020248907 0.0041738786 -0.18300666 0.05147063 0.010910867 -0.12951574
-0.017837547 -0.019462416 -0.09707634 -0.11992798 0.13613349 -0.028254185 0.17723802 0.029799951
0.0007417125 0.011722305 -0.07962907 -0.10624266 0.15795843 0.082542375 -0.0063524223 -0.0057663457
-0.078069404 0.08118184 -0.2055932 -0.18334568 -0.009963069 0.087733716 -0.20232134 -0.028177934
-0.15527597 -0.049855057 0.07643059 0.010304772 -0.035608448 0.14700602 -0.16969338 -0.036397688
0.18270212 -0.1908954 0.1390867 0.17149478 -0.31726632 -0.27328268 0.10643453 -0.23061596
0.1292106 0.12544864 -0.0022364953 0.063527055 -0.13812451 -0.06237193 0.11239344 -0.02001478
0.1274968 0.11790715 0.038889974 0.08885472 0.22133094 0.41133466 -0.13775708 0.086310625
00000000: 1cfb b83d 1151 883e 13b2 d13d ad69 d63d
00000010: 0a08 54be 1365 893d db0b 00bc c643 32be
00000020: f7c3 f03d 6e12 d83d 1116 1fbe 7a74 143e
00000030: 9a4a 09bd c221 0bbe 0cc8 953d cb50 f7bd
00000040: 77fe 26be 139a c1bd 4b39 363d 58f6 07bd
00000050: ea67 3dbc 07e0 9a3c bc8f b5bd df30 18bd
00000060: ce6f ff3d 0ab1 553c 2f7e 6bba faa1 033b
00000070: 641a 3dbe 311c f3bd 4971 79bd c1b6 3fbe
00000080: 58c6 6cbc 71a3 35be 74d0 03bd de72 e83b
00000090: 419e 93bd a1dd 0dbe 9f8c 35bd 0208 2abe
000000a0: 3363 a7bd 94dc 38be 91eb 403d aa94 cabd
000000b0: 0270 ca3d fe11 01be 9d92 8b3c 363a 9b3d
000000c0: f1ee 16bd ff2c 603d fe0c c1bb d12e 08bd
000000d0: 9b4a 7d3c d851 19be 76fa 2f3c 1a1e 8fbc
000000e0: cba3 6f3d 279b 113e afea 633d f747 5e3e
000000f0: b45f a8bd b403 0b3e 0cd2 113d e6bc a2bc
00000100: 92d1 63bd ce16 42bd 8fbf f1bc d644 85bd
00000110: 4a64 1dbe a1e4 6ebc ad6a 14be 53e7 3ebd
00000120: 8d98 c7bd e5f0 87bc c945 81bb c2eb 7fbd
00000130: 001a ec3d 62ae 7d3d bec7 9b3d 77e0 003e
00000140: 3fc5 2abe ac5a 7fbd 9a33 133e 46c9 173e
00000150: 541c ec3d 6837 063e 6f50 b63d ccd2 f6ba
00000160: 3af4 623d bf4e c4bb ccba c3ba 28a7 01be
00000170: c53f 5d3e 9e04 283c 024d 3a3e 1337 c33d
00000180: ae39 893d 723b 59bd 866c ab3d 00ba 02bd
00000190: 5167 223d 2422 ce3b 89e2 fa3c 0c16 c3bd
000001a0: 0d01 173c b1d6 01bd 86bc 14bd 600a 583d
000001b0: 904e 3a3e d52f aebb c209 f8bd bc6e b23c
000001c0: 95f5 233d b7d5 d4bd d071 803d 556f b5bd
000001d0: 2962 cc3c 8e00 93bd fef6 d73c b2bd 49bd
000001e0: 5b56 c6bd 8bf4 043c bf26 9dbc 048f a0bd
000001f0: a3eb 48be adb7 f1bd 027c d5bd 9ec9 d4bc
00000200: e8ba 8f3c f606 8d3c 9e10 823d 7649 a8bd
00000210: 512d 25be 2742 c7bd d57e ad3d fd04 8ebc
00000220: 72a1 443d 3564 e53d 8ab5 2c3d 8fa7 9cbd
00000230: 23d8 533d a27a d6bd 24c3 b63d a887 c5bc
00000240: 22b7 e1bd b1bd 70be 5246 e73c 4d3c 0e3e
00000250: 72c1 f0bc be73 eb3b 43f2 883d 7042 91bc
00000260: 6333 f53c 8665 d63c 1e7f dcbd 4a8b ae3d
00000270: 72b8 f13c bee6 5d3c 8ef8 c13d 65d9 bd3d
00000280: 9621 babc 4c12 2bbd f2d0 f13a 9688 8bbc
00000290: 6815 fcbc 9dc8 db3c f882 90bd 8e5a 42be
000002a0: 39a5 983d 0b51 5abd 85d6 343d d060 073e
000002b0: 3e02 cbbd a2a4 94bd 6343 d23c 4f4e 07be
000002c0: 329c 393a f9c5 b5bd d678 cabd 63a5 9bbc
000002d0: e710 1abe 41fa 9dbe e153 1a3d e0ad 2abe
000002e0: 5abb 643d 0bb4 a43d 4e91 a93d f586 053e
000002f0: fb95 d1bd c519 dd3c 8f89 6ebd 7515 f8bd
00000300: 9378 f9bc 3f4f 113e 09e1 a53c 08c5 883b
00000310: 1966 3bbe ded2 523d 7ec3 323c c69f 04be
00000320: 0c20 92bc a56f 9fbc f6cf c6bd cd9c f5bd
00000330: 9466 0b3e 5275 e7bc e27d 353e 071f f43c
00000340: 7c6f 423a e90e 403c 9114 a3bd c095 d9bd
00000350: dbbf 213e fa0b a93d fb27 d0bb 9df3 bcbb
00000360: dae2 9fbd aa42 a63d 0687 52be f8be 3bbe
00000370: 243c 23bc bcad b33d 532d 4fbe 69d5 e6bc
00000380: aa00 1fbe d134 4cbd a487 9c3d 59d5 283c
00000390: 2ada 11bd bf88 163e 1ac4 2dbe be15 15bd
000003a0: 4416 3b3e 157a 43be be6c 0e3e 549c 2f3e
000003b0: bb70 a2be b5eb 8bbe 59fa d93d 9726 6cbe
000003c0: c94f 043e 9c75 003e 2a92 12bb 791a 823d
000003d0: 8370 0dbe b579 7fbd 882e e63d 09f6 a3bc
000003e0: 858e 023e 4e79 f13d 184b 1f3d 77f9 b53d
000003f0: 94a4 623e 759a d23e 3110 0dbe a0c3 b03d

blocks.3.blocks.13.bias f4 [16]
0.4195185 1.0531571 0.0065971413 -0.20113744 0.43589443 -0.0991249 -0.22712497 0.015563739
0.018966971 0.075996436 0.3186305 -0.21712767 -0.058148444 1.3593143 0.241663 0.5926553
00000000: 21cb d63e dacd 863f d52c d83b f9f6 4dbe
00000010: 8e2d df3e ff01 cbbd 7393 68be 0eff 7e3c
00000020: 9f60 9b3c 05a4 9b3d 8923 a33e b756 5ebe
00000030: 102d 6ebd 03fe ad3f 8176 773e 42b8 173f

blocks.3.blocks.13.running_mean f4 [16]
0.2075994 -0.15956058 0.025273424 0.045075107 -0.04822452 -0.0044134385 0.10928705 0.035920266
-0.08568031 -0.22721265 -0.11928287 0.016836392 -0.011936848 -0.22849733 0.20680752 0.0803242
00000000: f094 543e d963 23be 360a cf3c ada0 383d
00000010: 1387 45bd 9b9e 90bb e4d1 df3d 2121 133d
00000020: 2979 afbd 6faa 68be 944a f4bd 79ec 893c
00000030: c592 43bc 34fb 69be 5ac5 533e 0481 a43d

blocks.3.blocks.13.running_var f4 [16]
0.1016546 0.22458698 0.1475093 0.12298625 0.15255535 0.13170321 0.120252274 0.13764518
0.10226002 0.20072518 0.35395786 0.23853917 0.123204134 0.23501724 0.13549188 0.19866052
00000000: 4930 d03d 21fa 653e ae0c 173e 37e0 fb3d
00000010: 7837 1c3e 35dd 063e d346 f63d dcf2 0c3e
00000020: b46d d13d e78a 4d3e f739 b53e 9d43 743e
00000030: 7352 fc3d 5ca8 703e 62be 0a3e aa6d 4b3e

blocks.3.blocks.13.weight f4 [16]
0.5692212 0.27554217 0.9100458 0.7548671 0.35241917 0.6637249 0.60186076 0.7052986
0.47743693 0.88649404 1.1152707 0.8138291 0.64262104 0.5796169 0.486678 0.8102308
00000000: 7bb8 113f dd13 8d3e c3f8 683f f83e 413f
00000010: 4970 b43e e0e9 293f 8c13 1a3f 738e 343f
00000020: 9d72 f43e 46f1 623f 31c1 8e3f 1b57 503f
00000030: d082 243f c661 143f dc2d f93e 496b 4f3f

blocks.3.blocks.2.weight f4 [8, 16, 3, 3]
-0.0031078274 0.049902637 0.15542346 0.10073757 0.06610068 0.09065776 0.07493859 0.10703011
0.06590947 -0.052343354 -0.020719303 0.007737735 -0.01855165 0.020371405 0.0108466875 0.012914776
-0.0011395788 -0.028372841 0.13402274 0.10930129 0.050535906 0.045193132 0.09610171 0.13043042
0.1252722 0.08903156 0.19909096 -0.11948008 -0.05082458 -0.04461778 -0.12314889 -0.07980785
0.0032644374 0.010977804 -0.064793915 -0.039134312 -0.05004805 0.03665506 -0.09528808 -0.027401319
0.0084503 -0.05665022 0.0037483254 -0.056667708 0.034898788 0.0850181 0.06415803 0.085341156
0.06716385 -0.045923818 0.1075949 0.031267747 0.042909 0.08668017 0.020953551 -5.5714612e-05
-0.004152112 0.06774475 0.0013693545 0.051639624 -0.061801787 -0.042080864 0.045052834 -0.03955261
0.02402602 -0.057075787 0.06834049 0.06537922 -0.03231439 -0.039844513 0.07267707 -0.046667866
-0.0003024872 0.079973966 -0.082981594 -0.007931087 0.11549485 0.012265709 0.0016485115 -0.006819709
0.11066793 0.06627245 -0.048522033 0.08516528 0.017530188 0.015984451 0.2433066 -0.020196123
0.012657194 -0.024293855 0.048624046 0.06466554 0.00966392 0.071760036 0.05005774 0.0023088746
0.055214494 0.012831818 0.058818772 0.117557384 -0.0134056555 0.0031750258 -0.005711006 -0.052820694
0.004578642 -0.029053217 0.06011884 0.07829012 0.005961556 0.13570471 0.02937047 0.03141225
0.16165839 0.13675496 0.0109805595 0.15150197 0.12913132 0.10948721 0.10478107 0.15702663
0.0929156 0.19846036 0.1991767 0.008228836 0.11403809 0.22474428 0.06566125 0.036511995
0.0920725 -0.02665667 0.07949485 0.18725002 0.009283287 0.14399858 0.10584488 0.04129101
-0.02072559 0.05951404 0.018557612 0.04139067 0.090993226 0.05872656 -0.0057249162 -0.032485902
-0.063104466 -0.15969177 -0.029070107 -0.04010411 -0.13607146 -0.045221634 -0.13662483 -0.12266905
0.005064838 -0.03633689 -0.028776707 0.013168841 -0.100005694 -0.089878745 -0.007917685 0.03722908
-0.061378006 -0.027167853 -0.030887825 -0.15137002 -0.02475792 -0.038623385 -0.073344894 -0.0077080596
-0.13131444 -0.10655309 -0.099529944 0.060587756 0.14029656 0.09817261 0.16520743 0.15921535
-0.020088898 0.028576378 0.06819142 0.03958638 -0.0024147327 0.061887268 -0.0012110905 0.04263417
-0.06929371 -0.008712971 0.07022395 0.06598881 0.09634703 0.12379458 0.122575484 -0.008614029
0.07287379 0.12531342 0.00047137067 0.07240686 0.12248284 0.11984307 0.0737269 0.06750306
-0.010658307 0.15813327 0.12642464 0.004493053 0.117226005 0.1448334 0.037918147 -0.03517259
-0.047922436 -0.03902896 -0.033158846 -0.07691548 -0.159804 -0.10377489 -0.13680613 -0.1189742
-0.09678904 -0.056439146 -0.012862035 -0.052757923 -0.057892308 0.0491445 -0.04100631 0.046280332
-0.001389183 -0.086349174 -0.040367577 0.0077250157 0.028340658 -0.038166806 -0.0037852486 0.045210276
0.0060370215 -0.026065122 0.019578967 0.011393332 0.025485737 -5.155314e-06 0.019510955 0.027177645
0.005263619 0.0044439225 0.009866682 0.04493515 0.06137923 0.009556547 0.06411589 0.15527721
0.09994606 0.070296295 0.08628095 0.028927898 -0.15437403 -0.09990535 -0.08088672 -0.116546996
00000000: b1ac 4bbb b566 4c3d 5427 1f3e 804f ce3d
00000010: cb5f 873d c7aa b93d 6779 993d 9a32 db3d
00000020: 8bfb 863d fc65 56bd 87bb a9bc d38c fd3b
00000030: a1f9 97bc efe1 a63c 4eb6 313c 7f98 533c
00000040: eb5d 95ba 296e e8bc 423d 093e 5bd9 df3d
00000050: bdfe 4e3d 6f1c 393d f9d0 c43d 8d8f 053e
00000060: 5b47 003e 2e56 b63d 80de 4b3e f9b1 f4bd
00000070: 6f2d 50bd 22c1 36bd 7c35 fcbd 4c72 a3bd
00000080: 2cf0 553b 3fdc 333c acb2 84bd 4d4b 20bd
00000090: 2fff 4cbd 9e23 163d 6626 c3bd bb78 e0bc
000000a0: 2173 0a3c 100a 68bd 77a6 753b 661c 68bd
000000b0: 08f2 0e3d f81d ae3d 4965 833d 58c7 ae3d
000000c0: 338d 893d 9d1a 3cbd b75a dc3d 9c12 003d
000000d0: 59c1 2f3d 5f85 b13d c8a6 ab3c 1caf 69b8
000000e0: 710e 88bb c2bd 8a3d ea7b b33a 1284 533d
000000f0: df23 7dbd fc5c 2cbd 5289 383d eb01 22bd
00000100: 37d2 c43c 4dc8 69bd 19f6 8b3d 8ae5 853d
00000110: 185c 04bd 0034 23bd b7d7 943d ce26 3fbd
00000120: 2597 9eb9 64c9 a33d 41f2 a9bd 64f1 01bc
00000130: 9088 ec3d 1df6 483c de12 d83a de77 dfbb
00000140: dea5 e23d dab9 873d 0abf 46bd 226b ae3d
00000150: 789b 8f3c d3f1 823c 5e25 793e 5772 a5bc
00000160: 1f60 4f3c e803 c7bc 022a 473d 5e6f 843d
00000170: 6b55 1e3c edf6 923d 5809 4d3d 7d50 173b
00000180: 9828 623d 8c3c 523c f4eb 703d edc1 f03d
00000190: 65a3 5bbc 1814 503b 6423 bbbb 835a 58bd
000001a0: 6f08 963b 0301 eebc 2c3f 763d 9256 a03d
000001b0: 2859 c33b 2df6 0a3e 579a f03c 22aa 003d
000001c0: c789 253e 7e09 0c3e cee7 333c 5523 1b3e
000001d0: 003b 043e d53a e03d 7597 d63d 97cb 203e
000001e0: 894a be3d 3139 4b3e faf4 4b3e 3dd2 063c
000001f0: cd8c e93d 5d23 663e 6879 863d 9a8d 153d
00000200: 8290 bc3d 175f dabc 32ce a23d 78be 3f3e
00000210: ee18 183c 5d74 133e 33c5 d83d c320 293d
00000220: b6c8 a9bc fec4 733d 2206 983c 4389 293d
00000230: a85a ba3d 438b 703d 1498 bbbb f00f 05bd
00000240: ea3c 81bd 3d86 23be 6f24 eebc 3544 24bd
00000250: 5156 0bbe 523a 39bd 61e7 0bbe e939 fbbd
00000260: f1f6 a53b fed5 14bd 21bd ebbc 1fc2 573c
00000270: c9cf ccbd 5912 b8bd 2eb9 01bc 857d 183d
00000280: 8167 7bbd 1e8f debc 7708 fdbc be00 1bbe
00000290: 1fd1 cabc 8e33 1ebd d935 96bd e493 fcbb
000002a0: 4b77 06be 8238 dabd 5bd6 cbbd de2a 783d
000002b0: e7a9 0f3e b90e c93d 232c 293e 5909 233e
000002c0: 7991 a4bc 0219 ea3c f1a7 8b3d 5425 223d
000002d0: 7e40 1ebb 817d 7d3d 74bd 9eba 2ba1 2e3d
000002e0: dce9 8dbd d9c0 0ebc 93d1 8f3d 2425 873d
000002f0: 9751 c53d 0388 fd3d db08 fb3d db21 0dbc
00000300: db3e 953d 2952 003e 4d22 f739 0c4a 943d
00000310: 49d8 fa3d 4970 f53d 21fe 963d 0b3f 8a3d
00000320: 2ea0 2ebc b0ed 213e 7675 013e 763a 933b
00000330: 3014 f03d 354f 143e 0f50 1b3d 2211 10bd
00000340: 514a 44bd d5dc 1fbd 92d1 07bd dd85 9dbd
00000350: a9a3 23be ee87 d4bd e816 0cbe bfa8 f3bd
00000360: 5539 c6bd bc2c 67bd 49bb 52bc b118 58bd
00000370: 7c20 6dbd be4b 493d 3cf6 27bd 7290 3d3d
00000380: 3f15 b6ba d6d7 b0bd 7958 25bd 2122 fd3b
00000390: ab2a e83c cc54 1cbd ef11 78bb 692e 393d
000003a0: 35d2 c53b 8686 d5bc 1264 a03c 19ab 3a3c
000003b0: 77c7 d03c cffb acb6 70d5 9f3c a7a3 de3c
000003c0: 707a ac3b 539e 913b dda7 213c eb0d 383d
000003d0: ca68 7b3d 1093 1c3c 314f 833d fd00 1f3e
000003e0: 85b0 cc3d 81f7 8f3d 11b4 b03d 33fa ec3c
000003f0: 3a14 1ebe 2d9b ccbd f0a7 a5bd 31b0 eebd

blocks.3.blocks.3.bias f4 [8]
0.22146422 0.28538617 0.64694935 0.7448772 0.08253192 0.5885609 0.11184533 0.1535108
00000000: 84c7 623e 231e 923e 799e 253f 46b0 3e3f
00000010: 7f06 a93d edab 163f 2a0f e53d ef31 1d3e

blocks.3.blocks.3.running_mean f4 [8]
4.080341 -2.5309057 3.2555506 -3.0204988 4.3196187 -3.2892935 2.8110452 -2.4677272
00000000: 2792 8240 5cfa 21c0 f15a 5040 da4f 41c0
00000010: 513a 8a40 c983 52c0 2ae8 3340 3eef 1dc0

blocks.3.blocks.3.running_var f4 [8]
8.83015 17.300362 15.44962 36.48504 11.677651 2.6305459 12.442099 9.557031
00000000: 4b48 0d41 2467 8a41 a531 7741 aef0 1142
00000010: a9d7 3a41 dd5a 2840 d612 4741 99e9 1841

blocks.3.blocks.3.weight f4 [8]
0.97424406 0.9080446 0.86193043 0.6269159 1.1721433 0.68295836 0.74136204 0.87168366
00000000: 0f68 793f 9c75 683f 79a7 5c3f 8f7d 203f
00000010: cb08 963f 5cd6 2e3f e7c9 3d3f a926 5f3f

blocks.3.blocks.4.blocks.2.weight f4 [8, 1, 3, 3]
0.21170487 -0.30191666 -0.25987712 -0.12432761 -0.21021602 -0.16055322 -0.050109513 0.05107812
-0.16907649 -0.0712826 0.024334067 0.45397976 0.073446766 -0.020667335 0.2869848 0.19322273
-0.07783491 -0.16400293 0.22829337 -0.12465155 -0.20679758 0.29413167 0.457428 -0.31263465
-0.16173784 0.45921633 0.0065568183 0.25635183 0.031656496 -0.43077663 0.15872358 0.11821965
0.11831599 -0.2660341 0.33623192 -0.004530411 0.22219649 -0.06861876 0.014982994 0.2897185
0.03364515 0.42998 -0.015887154 0.21394841 0.30954018 -0.12704884 0.24625908 0.33395383
0.08237915 0.17610659 0.007473543 -0.044488747 -0.082824044 0.4574878 0.070112556 -0.40215418
-0.042203326 0.06270404 -0.25700146 -0.2693268 0.004034736 0.036225364 -0.2295056 0.013155076
-0.19843629 -0.28259915 -0.093465544 -0.1078247 0.028545668 -0.06293586 0.16608761 -0.032110386
00000000: 29c9 583e d294 9abe 9d0e 85be 799f febd
00000010: de42 57be 1068 24be a23f 4dbd 4a37 513d
00000020: 6322 2dbe 9dfc 91bd 3d58 c73c 0970 e83e
00000030: 426b 963d 8b4e a9bc acef 923e 2edc 453e
00000040: e967 9fbd 62f0 27be bdc5 693e 5049 ffbd
00000050: bfc2 53be 6d98 963e 0134 ea3e a611 a0be
00000060: 9b9e 25be 671e eb3e 94da d63b 8c40 833e
00000070: 3eaa 013d c18e dcbe 6f88 223e 251d f23d
00000080: a74f f23d 9f35 88be 9726 ac3e d873 94bb
00000090: 7a87 633e fe87 8cbd 3b7b 753c fc55 943e
000000a0: 7fcf 093d 5726 dc3e c725 82bc 4b15 5b3e
000000b0: 0d7c 9e3e 1719 02be 572b 7c3e fffb aa3e
000000c0: 66b6 a83d 4955 343e 9fe4 f43b d539 36bd
000000d0: a79f a9bd d73b ea3e 2c97 8f3d 27e7 cdbe
000000e0: 65dd 2cbd fa6a 803d b295 83be 34e5 89be
000000f0: d235 843b 0c61 143d 8403 6bbe 6388 573c
00000100: e232 4bbe d6b0 90be dd6a bfbd 32d3 dcbd
00000110: 9bd8 e93c 84e4 80bd df12 2a3e 2e86 03bd

blocks.3.blocks.4.blocks.3.bias f4 [8]
0.26222235 0.303891 0.4388489 0.6592586 -0.17701326 0.5079318 -0.034371406 -0.105443045
00000000: 0242 863e 9a97 9b3e ceb0 e03e 2cc5 283f
00000010: f742 35be d207 023f 08c9 0cbd 86f2 d7bd

blocks.3.blocks.4.blocks.3.running_mean f4 [8]
-0.5227474 0.37558496 0.45301995 0.22892603 0.759243 0.7012182 -0.3828673 -0.25638053
00000000: c6d2 05bf ac4c c03e 3bf2 e73e 966b 6a3e
00000010: c05d 423f 0983 333f 2f07 c4be 4f44 83be

blocks.3.blocks.4.blocks.3.running_var f4 [8]
0.52784795 0.16283634 0.29972392 0.036381554 1.3472478 0.30252117 0.26351988 0.08469882
00000000: 0b21 073f 92be 263e 6a75 993e d304 153d
00000010: 9e72 ac3f 0ee4 9a3e 14ec 863e 9376 ad3d

blocks.3.blocks.4.blocks.3.weight f4 [8]
0.69366246 1.0073675 1.0046066 0.95303744 0.8107455 0.9506479 0.72345436 0.74100775
00000000: dd93 313f 6bf1 803f f396 803f 43fa 733f
00000010: 048d 4f3f a95d 733f 4e34 393f afb2 3d3f

blocks.3.blocks.4.blocks.5.weight f4 [8, 8, 1, 1]
0.011206092 0.18801749 -0.110271044 -0.07157934 -0.20683403 0.4702112 -0.05620534 -0.15582865
0.28259876 -0.26848394 -0.03181157 0.39877835 -0.16846946 -0.06849818 0.14746827 -0.014819479
0.31909314 -0.19130033 0.426419 -0.1420205 -0.12974396 0.1777277 0.11225702 -0.14666359
-0.05216146 -0.0703735 0.117965706 -0.566358 -0.14274658 0.04941571 -0.08169013 0.23809004
-0.012964807 0.051005576 0.4788926 -0.043937515 -0.22324678 0.45780268 0.009446661 -0.102130525
-0.11611762 -0.33905452 0.32384777 -0.07550306 -0.02349676 0.11779596 0.2458516 -0.02139096
-0.11488805 -0.11186018 -0.50679433 0.20942554 -0.3134507 0.35445264 -0.17555438 -0.10279401
-0.16484092 0.22283532 0.17318942 0.25445166 -0.30920598 0.00013894014 0.008702571 -0.13544652
00000000: c299 373c a887 403e c9d5 e1bd 3098 92bd
00000010: 4dcc 53be 86bf f03e 9237 66bd 8c91 1fbe
00000020: c9b0 903e ba76 89be d94c 02bd ad2c cc3e
00000030: 4283 2cbe c648 8cbd ec01 173e 66cd 72bc
00000040: 2d60 a33e 3ce4 43be 9753 da3e d26d 11be
00000050: 9adb 04be 40fe 353e 02e7 e53d fb2e 16be
00000060: 41a7 55bd fb1f 90bd 0198 f13d d6fc 10bf
00000070: 292c 12be 2168 4a3d 284d a7bd e0cd 733e
00000080: 586a 54bc 39eb 503d 6931 f53e d3f7 33bd
00000090: ce9a 64be 1d65 ea3e 2bc6 1a3c cf29 d1bd
000000a0: 13cf edbd 8e98 adbe 60cf a53e 59a1 9abd
000000b0: 477c c0bc 023f f13d 86c0 7b3e 183c afbc
000000c0: 6d4a ebbd f316 e5bd 46bd 01bf a673 563e
000000d0: 9c7c a0be d17a b53e 87c4 33be aa85 d2bd
000000e0: 0fcc 28be f12e 643e 9158 313e 7d47 823e
000000f0: 3f50 9ebe 76b0 1139 3a95 0e3c 7eb2 0abe

blocks.3.blocks.4.blocks.6.bias f4 [8]
0.1683524 0.18546613 0.095215596 0.27752906 0.14973056 0.42560273 0.062563 -0.17764992
00000000: 9264 2c3e d5ea 3d3e 6500 c33d 4a18 8e3e
00000010: f852 193e 9ae8 d93e 0821 803d dce9 35be

blocks.3.blocks.4.blocks.6.running_mean f4 [8]
0.20722377 0.20230418 0.27246934 -0.39716202 0.5189692 0.02420143 -0.18773264 0.24299611
00000000: 7832 543e d428 4f3e 1a81 8b3e d258 cbbe
00000010: 2adb 043f 1442 c63c fc3c 40be f9d3 783e

blocks.3.blocks.4.blocks.6.running_var f4 [8]
0.18617019 0.13026808 0.19349968 0.40839493 0.22448057 0.28298196 0.4567178 0.11758071
00000000: 66a3 3e3e ff64 053e c824 463e 2419 d13e
00000010: 3cde 653e 03e3 903e ead6 e93e 28ce f03d

blocks.3.blocks.4.blocks.6.weight f4 [8]
1.0156028 0.73475903 0.95941186 0.9862103 0.97422713 0.77106017 0.95557636 0.95051134
00000000: 46ff 813f 2b19 3c3f 049c 753f 4778 7c3f
00000010: f366 793f 3364 453f a7a0 743f b654 733f

blocks.3.blocks.5.blocks.2.weight f4 [8, 1, 3, 3]
0.08743003 0.122232184 -0.14912318 0.22911853 0.26330215 -0.19540559 0.1436205 -0.25551346
-0.2858701 0.15999538 0.11596084 -0.30529627 -0.31447092 0.65555525 -0.051803283 -0.0057499674
-0.45239836 0.41349247 -0.36118937 0.2734791 0.13759606 -0.17218475 -0.34901264 -0.10785436
-0.124387175 -0.24279432 0.117149286 -0.058186278 0.30492514 -0.15963538 -0.2995945 -0.1960975
0.47055006 -0.291956 -0.22612084 0.25928187 -0.08179987 0.107639775 0.3791593 0.6088642
0.14684643 0.25837636 -0.1696468 0.3134876 -0.20143472 -0.12017142 -0.2867756 0.31522006
0.18341357 -0.4609617 0.34442785 -0.056931634 0.16713087 0.0085553555 0.34245595 -0.52731264
-0.015067593 -0.1429606 -0.12200117 -0.15750667 0.017504983 -0.049167722 -0.31393877 -0.10798893
-0.06668429 0.22171004 -0.0862753 -0.102350146 0.40813658 0.068153165 0.08465217 0.13778687
00000000: 840e b33d de54 fa3d bfb3 18be 0c9e 6a3e
00000010: 8acf 863e 6718 48be 4111 133e a9d2 82be
00000020: 915d 92be d4d5 233e e07c ed3d cb4f 9cbe
00000030: 5502 a1be 78d2 273f ae2f 54bd 396a bcbb
00000040: c2a0 e7be 49b5 d33e d0ed b8be 7405 8c3e
00000050: fbe5 0c3e 3351 30be c9b1 b2be bfe2 dcbd
00000060: b4be febd 139f 78be f7eb ef3d bc54 6ebd
00000070: 261f 9c3e 7577 23be 7364 99be c8cd 48be
00000080: f0eb f03e 427b 95be 398c 67be 98c0 843e
00000090: b186 a7bd 3e72 dc3d 2b21 c23e 86de 1b3f
000000a0: e95e 163e e849 843e e4b7 2dbe 7281 a03e
000000b0: e744 4ebe 6f1c f6bd 40d4 92be 8664 a13e
000000c0: c4d0 3b3e 2c03 ecbe d958 b03e 2531 69bd
000000d0: 5b24 2b3e c32b 0c3c 6356 af3e f6fd 06bf
000000e0: 11de 76bc 4364 12be c0db f9bd 6e49 21be
000000f0: 9c66 8f3c 1864 49bd 95bc a0be 4d29 ddbd
00000100: c691 88bd f507 633e 1bb1 b0bd f49c d1bd
00000110: 47f7 d03e e393 8b3d 1e5e ad3d 0018 0d3e

blocks.3.blocks.5.blocks.3.bias f4 [8]
0.0018248301 0.2624548 -0.034518104 0.04358041 0.112681255 0.980698 0.016260006 0.05451238
00000000: 232f ef3a 7a60 863e db62 0dbd 5f81 323d
00000010: 6ec5 e63d 060f 7b3f b433 853c 6048 5f3d

blocks.3.blocks.5.blocks.3.running_mean f4 [8]
-0.01924439 0.19920312 -0.95866245 -0.21461366 1.2890946 0.16729505 -0.34717628 0.3992983
00000000: 69a6 9dbc e7fb 4b3e e76a 75bf afc3 5bbe
00000010: 0d01 a53f 654f 2b3e 17c1 b1be d470 cc3e

blocks.3.blocks.5.blocks.3.running_var f4 [8]
0.13226914 0.17959584 1.1375821 0.06260601 2.3183548 0.16910756 0.14830641 0.34391165
00000000: 9071 073e f9e7 373e 4a9c 913f 9437 803d
00000010: ed5f 1440 882a 2d3e a3dd 173e 3015 b03e

blocks.3.blocks.5.blocks.3.weight f4 [8]
0.83703643 1.0363318 0.8723567 0.72037214 1.0687083 0.7914728 0.75861096 1.0904602
00000000: 0548 563f 85a6 843f c552 5f3f 4f6a 383f
00000010: 6fcb 883f f69d 4a3f 5434 423f 3394 8b3f

blocks.3.blocks.5.blocks.5.weight f4 [8, 8, 1, 1]
0.0047201235 0.12924239 0.12682979 0.0380841 -0.15437949 0.29478097 -0.047197204 -0.6413837
0.11478576 0.4023763 0.06599956 -0.26394892 -0.3155512 0.2791565 -0.113079965 -0.17734382
-0.022733932 -0.13476175 -0.17139946 -0.03294061 -0.66930807 -0.3580187 -0.058647443 -0.027057206
-0.31856626 -0.098213874 0.054935995 -0.24265213 0.2294139 0.35796773 -0.044765793 -0.23068301
0.08388549 -0.017246306 -0.17164771 -0.25050673 0.13341837 0.123478524 0.13746312 -0.6469817
-0.013646641 -0.18111938 0.1753246 0.14757884 -0.17148541 -0.447084 -0.056907065 -0.28770474
0.23463155 0.24687757 -0.069235325 -0.22448355 0.15536237 -0.30696997 0.28218916 0.13635412
-0.039061353 0.44775757 -0.18498026 -0.25384638 0.031371422 0.07183306 -0.009118576 -0.38267192
00000000: 44ab 9a3b 1e58 043e abdf 013e 13fe 1b3d
00000010: a815 1ebe 88ed 963e db51 41bd b931 24bf
00000020: cc14 eb3d 4404 ce3e c72a 873d 5024 87be
00000030: ed8f a1be 9aed 8e3e 7896 e7bd 9e99 35be
00000040: 833c babc fcfe 09be 5783 2fbe bcec 06bd
00000050: c657 2bbf 3a4e b7be 4d38 70bd 13a7 ddbc
00000060: 1e1b a3be 5b24 c9bd 9104 613d cd79 78be
00000070: 7aeb 6a3e 8c47 b73e 565c 37bd 2b38 6cbe
00000080: 28cc ab3d 2048 8dbc 6bc4 2fbe 6b42 80be
00000090: d39e 083e 4fe2 fc3d 22c3 0c3e 98a0 25bf
000000a0: 2996 5fbc 5c77 39be 4b88 333e e81e 173e
000000b0: df99 2fbe 32e8 e4be 6217 69bd 094e 93be
000000c0: 4143 703e 79cd 7c3e 40cb 8dbd 04df 65be
000000d0: 5017 1f3e 2b2b 9dbe 197b 903e 6aa0 0b3e
000000e0: ccfe 1fbd 7b40 e53e 776b 3dbe 27f8 81be
000000f0: 527f 003d 361d 933d 1466 15bc 93ed c3be

blocks.3.blocks.5.blocks.6.bias f4 [8]
-0.018224005 -0.07943057 0.17151152 0.16134459 0.15587626 0.21391414 -0.10922094 -0.22991996
00000000: 824a 95bc 7fac a2bd b7a0 2f3e 8437 253e
00000010: 079e 1f3e 4f0c 5b3e 3aaf dfbd 2370 6bbe

blocks.3.blocks.5.blocks.6.running_mean f4 [8]
0.016508812 0.16627908 -0.86807 0.19445217 -0.18705156 -0.6938731 0.016917158 -0.036686935
00000000: 7d3d 873c 1045 2a3e d639 5ebf 781e 473e
00000010: 728a 3fbe aba1 31bf da95 8a3c 0a45 16bd

blocks.3.blocks.5.blocks.6.running_var f4 [8]
0.31408203 0.21638146 0.3197217 0.27866933 0.43189952 0.12639786 0.19060254 0.19069523
00000000: 5ccf a03e 1a93 5d3e 90b2 a33e bfad 8e3e
00000010: ef21 dd3e 716e 013e 502d 433e 9c45 433e

blocks.3.blocks.5.blocks.6.weight f4 [8]
0.3926485 0.45517823 0.93894356 0.7510229 0.020593505 0.6705328 0.69547814 0.97830373
00000000: 3909 c93e 1f0d e93e 9b5e 703f 0943 403f
00000010: b6b3 a83c 0aa8 2b3f db0a 323f 1d72 7a3f

blocks.3.blocks.6.blocks.2.weight f4 [8, 1, 3, 3]
0.024270296 -0.30838075 0.19817956 -0.19400084 -0.10552126 0.08268375 -0.20781463 -0.16893478
0.22498775 0.2643402 0.15851796 0.18049642 -0.17344438 0.13257474 0.17857541 -0.31758994
-0.17219408 0.42134097 -0.008118351 0.31462854 0.18100446 -0.12009188 0.18687388 0.3815087
-0.30528957 0.019780794 0.17682438 -0.20937459 -0.076667346 -0.0005836243 -0.34641203 -0.3971816
0.026283715 0.111001804 -0.09449398 -0.025971862 0.23001836 0.03747407 -0.30785352 0.16526854
0.20612514 -0.3601588 0.0934272 0.0114127 0.043718696 0.039250575 0.15195704 -0.043166686
-0.16119565 -0.3343906 0.3649776 -0.24292631 -0.31132102 0.030532157 0.09602106 -0.2644019
0.37164348 0.09899464 0.29605597 0.07465287 0.20960876 -0.11897749 -0.118599705 0.16402385
0.25808036 -0.4128219 -0.13501509 0.26298845 0.19916207 -0.2179904 -0.11145107 0.078622736
00000000: 80d2 c63c 15e4 9dbe 95ef 4a3e 28a8 46be
00000010: 881b d8bd 1956 a93d 5ccd 54be 3dfd 2cbe
00000020: 3063 663e 9957 873e 8852 223e 0ed4 383e
00000030: 679b 31be acc1 073e 79dc 363e 269b a2be
00000040: a553 30be 01ba d73e d502 05bc fe16 a13e
00000050: 3c59 393e bbf2 f5bd de5b 3f3e 1c55 c33e
00000060: ea4e 9cbe 550b a23c 7311 353e 4b66 56be
00000070: c503 9dbd 5dfe 18ba eb5c b1be 635b cbbe
00000080: f250 d73c ea54 e33d 0f86 c1bd f1c2 d4bc
00000090: ef89 6b3e 697e 193d fa9e 9dbe 283c 293e
000000a0: 7812 533e bc66 b8be c356 bf3d 55fc 3a3c
000000b0: 6012 333d 36c5 203d a09a 1b3e 8dcf 30bd
000000c0: 7910 25be 3f35 abbe 58de ba3e adc1 78be
000000d0: 7865 9fbe 931e fa3c b1a6 c43d b05f 87be
000000e0: 0e48 be3e b4bd ca3d a694 973e 9be3 983d
000000f0: aea3 563e 78aa f3bd 67e4 f2bd def5 273e
00000100: 1c23 843e 645d d3be 6541 0abe 6ca6 863e
00000110: 24f1 4b3e e038 5fbe 7540 e4bd f504 a13d

blocks.3.blocks.6.blocks.3.bias f4 [8]
0.05401018 0.0929184 0.25565872 0.012283861 0.30748296 -0.03600406 -0.040863972 -0.30629504
00000000: c739 5d3d 014c be3d b3e5 823e 3f42 493c
00000010: 686e 9d3e fe78 13bd fb60 27bd b4d2 9cbe

blocks.3.blocks.6.blocks.3.running_mean f4 [8]
-0.3050681 0.67766595 0.9551331 -1.2730688 0.13092865 -0.79528046 0.15778491 0.03921229
00000000: e331 9cbe 847b 2d3f 9a83 743f ebf3 a2bf
00000010: 2912 063e 8097 4bbf 5e92 213e 119d 203d

blocks.3.blocks.6.blocks.3.running_var f4 [8]
0.16951764 0.8163748 1.0304457 0.8117717 0.27395776 0.5909334 0.051086448 0.32635695
00000000: 0896 2d3e f0fd 503f a5e5 833f 45d0 4f3f
00000010: 3144 8c3e 6947 173f 0640 513d 4218 a73e

blocks.3.blocks.6.blocks.3.weight f4 [8]
0.69991153 0.9673606 1.110791 0.69918144 0.85944176 0.82439774 0.65936506 1.05801
00000000: 672d 333f f2a4 773f 662e 8e3f 8efd 323f
00000010: 6004 5c3f bb0b 533f 26cc 283f df6c 873f

blocks.3.blocks.6.blocks.5.weight f4 [8, 8, 1, 1]
0.14084737 -0.080651715 0.4013073 0.021362485 0.019896297 0.16378948 0.040299565 -0.19015521
-0.08575175 0.27446097 -0.08738974 -0.19481154 0.27109495 -0.08984072 -0.17137353 0.5002928
-0.077243574 0.13597351 -0.13845614 -0.048748977 0.36876956 -0.31966028 -0.058553755 0.3787222
-0.12899815 -0.0140422275 0.3630577 0.17369328 -0.3364235 -0.15857121 -0.104987316 -0.058823094
-0.33645257 0.100610495 0.5975974 -0.10011703 -0.10399741 -0.11008747 -0.05762916 -0.04721406
-0.029741062 0.020506836 0.1885494 0.24894446 -0.19450876 0.40373686 0.0025918768 0.012169367
0.010386058 0.17615117 -0.046835124 -0.23865044 0.015648749 -0.004674593 -0.02979152 0.36806297
0.028093321 0.59277475 0.0048473733 -0.05613376 -0.044632845 -0.16835095 -0.00545015 0.038786843
00000000: 4b3a 103e ba2c a5bd 2778 cd3e 6100 af3c
00000010: 8ffd a23c 6eb8 273e 2811 253d 0cb8 42be
00000020: 9d9e afbd 2686 8c3e 64f9 b2bd ad7c 47be
00000030: f5cc 8a3e 69fe b7bd 8b7c 2fbe 3013 003f
00000040: e131 9ebd a43c 0b3e 72c7 0dbe 02ad 47bd
00000050: 5dcf bc3e 83aa a3be 10d6 6fbd e0e7 c13e
00000060: 1718 04be 5f11 66bc b3e2 b93e a7dc 313e
00000070: b33f acbe 7e60 22be 9703 d7bd 7cf0 70bd
00000080: 8343 acbe e00c ce3d 25fc 183f 280a cdbd
00000090: 98fc d4bd 8a75 e1bd 8e0c 6cbd 8863 41bd
000000a0: 87a3 f3bc f4fd a73c 1813 413e 4ceb 7e3e
000000b0: 4e2d 47be 99b6 ce3e 7adc 293b 0662 473c
000000c0: 492a 2a3c f960 343e 30d6 3fbd c860 74be
000000d0: ce31 803c 542d 99bb 590d f4bc c072 bc3e
000000e0: f723 e63c 16c0 173f b7d6 9e3b 83ec 65bd
000000f0: eed0 36bd 3164 2cbe 2c97 b2bb f4de 1e3d

blocks.3.blocks.6.blocks.6.bias f4 [8]
-0.084667996 -0.3700674 0.05552132 0.02288842 0.003651202 0.07124562 -0.18383782 -0.10362009
00000000: 6a66 adbd 7979 bdbe 536a 633d 7f80 bb3c
00000010: 0149 6f3b 39e9 913d fb3f 3cbe c536 d4bd

blocks.3.blocks.6.blocks.6.running_mean f4 [8]
0.2889206 0.10327615 0.042516697 0.0069797225 0.16962174 0.24695644 0.04078266 0.17691624
00000000: 67ed 933e 7282 d33d fd25 2e3d 28b6 e43b
00000010: 52b1 2d3e 26e2 7c3e b80b 273d 8829 353e

blocks.3.blocks.6.blocks.6.running_var f4 [8]
0.15296212 0.29358667 0.23440848 0.12897387 0.26820683 0.101036735 0.13090935 0.16696122
00000000: 1aa2 1c3e fe50 963e c708 703e ba11 043e
00000010: 6852 893e 59ec ce3d 1a0d 063e e2f7 2a3e

blocks.3.blocks.6.blocks.6.weight f4 [8]
0.94925624 1.1620157 0.75981927 1.2313826 1.0295324 0.8477307 1.2939476 1.1624528
00000000: 7502 733f eebc 943f 8483 423f f29d 9d3f
00000010: b8c7 833f e104 593f 13a0 a53f 41cb 943f

blocks.3.blocks.9.weight f4 [16, 8, 3, 3]
0.03505279 0.21200071 0.00038596042 0.021390293 -0.076059386 0.15623835 -0.18591352 0.0712889
0.028703216 0.011356692 0.11224101 0.028013907 0.17350897 -0.009212167 -0.0451888 0.102224655
0.03695292 0.102945745 -0.0097443415 -0.0022961062 0.1293584 -0.086300775 -0.22768345 0.033374704
0.005107466 -0.019296458 0.120346904 0.014366062 0.15895566 0.012349396 0.0448963 0.11576641
-0.04933485 0.029173989 0.08942864 -0.033296406 -0.056821547 0.33661506 0.30015174 -0.18489718
0.11305027 0.29440194 -0.15992768 0.08480113 0.03017574 -0.08284094 0.01795835 0.06722307
-0.047679875 0.00552524 0.18322913 -0.107942596 -0.108687185 -0.07153824 -0.035222698 0.050932486
-0.029669244 0.061746646 -0.056930464 -0.031082712 -0.073933326 0.04465636 0.05479795 -0.04292628
-0.035172325 -0.102387786 0.045424122 0.033338834 -0.039024524 0.04119888 -0.032117393 0.052385233
0.039890107 -0.07064759 -0.06737451 0.23882544 0.15352 -0.07704448 0.24512333 -0.09665625
0.043650728 -0.013690581 -0.0020841642 -0.13827287 -0.12274291 -0.058045734 -0.047146283 -0.07494018
-0.051432148 -0.065045886 -0.017996063 0.033779565 0.00631054 0.008269502 0.13495535 -0.024147261
0.11797509 0.054686718 0.076772474 0.120569184 -0.13675356 -0.051930428 0.07220557 -0.15226415
-0.084222876 -0.030443259 -0.07333881 -0.07734702 0.005223249 -0.15670112 -0.1021097 0.2539465
0.20775905 -0.11198381 0.2888943 0.21530157 -0.16112728 -0.0606084 0.19754305 0.039458096
0.0628587 -0.03992646 -0.015159549 -0.035131738 -0.012161105 0.042565633 -0.046530224 0.06265395
0.12439679 0.06339971 0.13977519 0.061289914 0.04786121 -0.13605452 -0.01568016 -0.008514304
-0.05434471 0.029587822 -0.057223257 -0.1019397 -0.076110676 -0.050043307 0.047899667 -0.14867528
0.055806722 0.11539962 0.0610583 0.17100826 -0.06547797 -0.0063548116 0.119871244 0.026515566
-0.14608057 -0.008194041 0.0715099 0.16890164 0.17723873 0.19305804 0.11674546 -0.07871187
0.15299535 0.047476556 -0.1394052 0.0048015164 0.0133523 0.016911106 -0.049523264 0.1051302
0.06954592 0.13606508 -0.057240404 0.045168184 -0.06985834 -0.054970156 0.0066009792 0.079190925
0.13370675 0.1551934 -0.113138184 -0.12445683 0.104915775 0.07227818 0.09602984 0.043059334
0.01625231 0.02105149 0.10009949 0.13639387 0.053666603 0.019492887 0.044787977 0.17928167
0.042219307 0.17856003 0.07004541 0.057639897 0.03570036 -0.03408917 0.02641473 -0.15578133
-0.015454924 0.04463198 0.023242882 -0.021157324 -0.016164796 0.11840776 -0.091467455 0.12125689
0.112393215 0.3027479 0.08631315 0.37379742 -0.24217363 -0.074029796 0.32234648 0.27705237
0.1000901 -0.06266927 -0.16054808 -0.03591665 0.06468372 -0.01899376 -0.090385966 0.10513458
0.024673821 0.04093798 -0.13381217 -0.09858523 0.23762314 0.313352 -0.20788386 -0.33882752
0.16899817 -0.036003407 0.020179788 -0.048699353 0.09330522 -0.06751312 -0.073038206 0.1593576
-0.01255872 -0.025828656 -0.029117895 0.13066734 0.11168491 -0.17350222 -0.0068482948 0.16611856
-0.23364787 -0.032524552 -0.03827117 -0.019822463 0.10424418 0.18991788 -0.2045001 -0.14145333
00000000: 8493 0f3d b716 593e bb5a ca39 b23a af3c
00000010: 06c5 9bbd f2fc 1f3e 1d60 3ebe eaff 913d
00000020: 0223 eb3c 6b11 3a3c 9dde e53d 6c7d e53c
00000030: 56ac 313e a1ee 16bc e417 39bd 295b d13d
00000040: f25b 173d 38d5 d23d bba6 1fbc 457a 16bb
00000050: 8776 043e 76be b0bd da25 69be eab3 083d
00000060: 885c a73b 9b13 9ebc 7078 f63d a25f 6b3c
00000070: 46c5 223e 1f55 4a3c 2fe5 373d f116 ed3d
00000080: 5713 4abd 4afe ee3c 5d26 b73d d061 08bd
00000090: b6bd 68bd cf58 ac3e 7dad 993e b055 3dbe
000000a0: e686 e73d dabb 963e 15c4 23be 37ac ad3d
000000b0: 1d33 f73c 83a8 a9bd 641d 933c 40ac 893d
000000c0: f94b 43bd 130d b53b 6ba0 3b3e 0211 ddbd
000000d0: 6397 debd a482 92bd ad45 10bd 959e 503d
000000e0: ea0c f3bc 0dea 7c3d eb2f 69bd 2ca1 febc
000000f0: 5b6a 97bd 96e9 363d d173 603d 78d3 2fbd
00000100: db10 10bd b0b0 d1bd a50e 3a3d 4d8e 083d
00000110: 2ed8 1fbd 28c0 283d 878d 03bd e691 563d
00000120: cf63 233d afaf 90bd a6fb 89bd a88e 743e
00000130: 5934 1d3e 7fc9 9dbd 9c01 7b3e b6f3 c5bd
00000140: 1bcb 323d 754e 60bc 7996 08bb 6797 0dbe
00000150: a360 fbbd 5dc1 6dbd 761c 41bd 3d7a 99bd
00000160: 84aa 52bd c736 85bd 7b6c 93bc 715c 0a3d
00000170: a5c8 ce3b ce7c 073c bc31 0a3e 7ad0 c5bc
00000180: ed9c f13d 2eff 5f3d e33a 9d3d faec f63d
00000190: 2009 0cbe 00b5 54bd 84e0 933d 22eb 1bbe
000001a0: 0b7d acbd 2464 f9bc a832 96bd 1d68 9ebd
000001b0: ca27 ab3b 4276 20be e41e d1bd 4705 823e
000001c0: cabe 543e c557 e5bd f4e9 933e 0478 5c3e
000001d0: 8dfe 24be 8340 78bd ba48 4a3e d09e 213d
000001e0: 10bc 803d ed89 23bd c25f 78bc 4ce6 0fbd
000001f0: 5f3f 47bc 4d59 2e3d 7a96 3ebd b750 803d
00000200: bfc3 fe3d b5d7 813d 3a21 0f3e 220b 7b3d
00000210: 1e0a 443d e051 0bbe ae73 80bc 947f 0bbc
00000220: 8f98 5ebd 2962 f23c ef62 6abd c3c5 d0bd
00000230: eadf 9bbd 36fa 4cbd 7132 443d 553e 18be
00000240: 9795 643d a356 ec3d 4518 7a3d ca1c 2f3e
00000250: 5019 86bd 063c d0bb 0e7f f53d 2c37 d93c
00000260: 2596 15be 4d40 06bc c873 923d 8df4 2c3e
00000270: 127e 353e 02b1 453e 3e18 ef3d b033 a1bd
00000280: d0aa 1c3e c776 423d 3dc0 0ebe 0a56 9d3b
00000290: 9bc3 5a3c 2989 8a3c e8d8 4abd 814e d73d
000002a0: 176e 8e3d a554 0b3e ea74 6abd 4602 393d
000002b0: e411 8fbd 6328 61bd 074d d83b da2e a23d
000002c0: 6cea 083e 05eb 1e3e feb4 e7bd 39e3 febd
000002d0: 15de d63d 9506 943d 4bab c43d fc5e 303d
000002e0: 9023 853c 2d74 ac3c f600 cd3d d6aa 0b3e
000002f0: 83d1 5b3d 8caf 9f3c 9973 373d 9d95 373e
00000300: 27ee 2c3d 71d8 363e f873 8f3d d017 6c3d
00000310: 8a3a 123d 16a1 0bbd b463 d83c 2485 1fbe
00000320: a636 7dbc 06d0 363d db67 be3c 2052 adbc
00000330: 096c 84bc c57f f23d 4a53 bbbd 8855 f83d
00000340: 6a2e e63d c601 9b3e f3c4 b03d 6062 bf3e
00000350: 5dfc 77be ef9c 97bd 990a a53e cfd9 8d3e
00000360: 0afc cc3d bf58 80bd b766 24be 561d 13bd
00000370: e678 843d cd98 9bbc 471c b9bd cc50 d73d
00000380: c120 ca3c 95ae 273d 0f06 09be 0ee7 c9bd
00000390: 7b53 733e ac6f a03e 82df 54be cd7a adbe
000003a0: db0d 2d3e 4f78 13bd 1550 a53c f978 47bd
000003b0: cf16 bf3d 5244 8abd 0e95 95bd a42e 233e
000003c0: 17c3 4dbc 9e96 d3bc a788 eebc a9cd 053e
000003d0: 0fbb e43d 91aa 31be a967 e0bb fc1a 2a3e
000003e0: 6341 6fbe 7738 05bd 3bc2 1cbd b862 a2bc
000003f0: f97d d53d d579 423e 7968 51be 24d9 10be

blocks.4.blocks.10.bias f4 [16]
0.64977765 -0.032771114 0.020797743 -0.18429457 0.25231746 0.026813587 0.025451668 0.03735306
0.026383383 0.044691123 0.014250091 0.03960758 -0.0060774847 0.057297446 -0.066563115 0.020942891
00000000: d457 263f 013b 06bd 0760 aa3c b7b7 3cbe
00000010: c12f 813e 2ba8 db3c 0480 d03c 86ff 183d
00000020: f721 d83c 0a0e 373d 3779 693c 8f3b 223d
00000030: a325 c7bb bab0 6a3d 3e52 88bd 6d90 ab3c

blocks.4.blocks.10.running_mean f4 [16]
2.427226 0.57401085 1.9905492 0.14552338 1.0474983 2.5394287 0.9494565 3.1922708
1.4460169 1.5324091 -1.329912 3.238668 2.7273095 0.2164291 0.8161023 3.890579
00000000: ac57 1b40 60f2 123f 51ca fe3f 1504 153e
00000010: 6d14 863f 0086 2240 950f 733f 2a4e 4c40
00000020: 1517 b93f fb25 c43f 8e3a aabf 5646 4f40
00000030: 3d8c 2e40 979f 5d3e 15ec 503f 3fff 7840

blocks.4.blocks.10.running_var f4 [16]
11.1275 4.157296 7.442505 3.5153008 6.4503026 7.0731354 4.724353 5.0437307
8.096371 9.022109 7.265098 15.872795 8.886618 5.855408 8.033794 11.577238
00000000: 3d0a 3241 9208 8540 0029 ee40 b0fa 6040
00000010: e168 ce40 2057 e240 e62d 9740 3e66 a140
00000020: bc8a 0141 8f5a 1041 af7b e840 f8f6 7d41
00000030: 962f 0e41 815f bb40 6c8a 0041 5e3c 3941

blocks.4.blocks.10.weight f4 [16]
1.0780369 0.9593176 0.9861081 0.93056715 0.8542261 0.9440763 0.9750509 0.721211
0.9966518 0.99021506 0.98149157 0.9610454 0.9928013 1.033985 0.8631842 0.98048073
00000000: 1dfd 893f d795 753f 9571 7c3f a639 6e3f
00000010: 90ae 5a3f fcae 713f f09c 793f 49a1 383f
00000020: 9324 7f3f bc7e 7d3f 0843 7b3f 1207 763f
00000030: 3a28 7e3f 9f59 843f a4f9 5c3f c900 7b3f

blocks.4.blocks.12.bias f4 [16]
-6.8722834e-06 -0.00039730853 5.9419403e-06 -8.839416e-06 -1.8558001e-05 -1.5362957e-06 -1.433485e-05 0.00010121509
-6.204989e-05 -2.8058495e-05 -3.9208728e-05 -0.000177059 -9.0325964e-05 4.5410692e-05 -2.57851e-05 -8.501668e-06
00000000: 7798 e6b6 d94d d0b9 e160 c736 014d 14b7
00000010: 01ad 9bb7 b832 ceb5 b67f 70b7 7043 d438
00000020: c820 82b8 295f ebb7 0d74 24b8 eaa8 39b9
00000030: 626d bdb8 5c77 3e38 154d d8b7 63a2 0eb7
